model.onnx (onnx, 700 bytes, 5 tensors)

l1.bias f4 [4]
000000 e8 db a6 be 91 cc fe bc dc 41 91 bc dd 4c b3 bd
       -0.3258965 -0.031103404 -0.0177316 -0.08754895

l2.bias f4 [2]
000000 7e 55 aa 3e 00 96 7e 3c
       0.3326835 0.0155386925

22 f4 [8, 4]
000000 ab 36 93 bb 33 d7 01 3e a8 4d 81 bd c1 6a ab be
       -0.004492601 0.12679748 -0.0631364 -0.33479884
000010 d9 df 8a be a0 76 a5 3e 57 0c 5d bb 7e 3b 36 3e
       -0.27123907 0.32317066 -0.003372928 0.17796132
000020 c5 29 01 bd 2f 85 6b be e6 e3 a1 3e d0 f5 23 3d
       -0.031533975 -0.23000024 0.31619185 0.040029347
000030 b8 63 b1 be bb 60 74 3e 62 59 a8 bd f5 ca 94 bd
       -0.34646392 0.23865025 -0.082201734 -0.072652735
000040 7d fc 85 3d 50 46 ca bd 81 36 04 bd 20 39 85 be
       0.06542299 -0.09876692 -0.03227854 -0.26020145
000050 78 65 a0 3e cf ec 36 3d 26 1f 2c be 03 23 39 3e
       0.31327415 0.044659432 -0.16808757 0.18079762
000060 4b 82 d9 bd c2 38 2e 3b a0 84 84 be 06 a5 52 3d
       -0.106205545 0.0026584123 -0.25882435 0.05142691
000070 3a 26 ca 3d e4 c1 bb 3d 7b 50 13 3d 5a 23 92 be
       0.098705724 0.09167841 0.035965424 -0.28542596

23 f4 [4, 2]
000000 5a 19 d9 3e 9e 13 bb 3e d8 be ef bd 18 53 d5 be
       0.42402154 0.36538404 -0.117063224 -0.41664958
000010 ea af c0 be 08 b4 e3 be 68 0a ab 3e 1c f3 0c be
       -0.37634212 -0.4447329 0.33406377 -0.13764614

24 f4 [2, 1]
000000 79 76 c2 3e 4a 4f b0 bd
       0.37981012 -0.08608873
