model.onnx (onnx, 700 bytes, 5 tensors)

l1.bias f4 [4]
0	0x3d33a815	0.043861467
1	0x3e5e65bd	0.21718498
2	0x3e2f50cc	0.17120665
3	0xbda95b80	-0.08269405

l2.bias f4 [2]
0	0xbe4a451c	-0.19752926
1	0xbef1f57a	-0.47257596

22 f4 [8, 4]
0	0xbdc084fd	-0.094003655
1	0x3dd1f478	0.10251707
2	0x3e1815b8	0.14852035
3	0x3e92b70e	0.28655285
4	0xbe94e106	-0.2907793
5	0x3d20759a	0.039174654
6	0xbe9ec0da	-0.3100651
7	0xbe58c2de	-0.21168086
8	0x3e54e2cf	0.20789646
9	0x3e96e160	0.29468822
10	0xbdf1e4eb	-0.11811241
11	0xbe849e21	-0.25901893
12	0xbd6f410f	-0.058411654
13	0xbd649384	-0.055804744
14	0x3e86ae05	0.2630464
15	0xbe6bb035	-0.23016436
16	0xbeb34313	-0.3501211
17	0x3e8d6f8f	0.27624175
18	0xbdd1f018	-0.102508724
19	0xbca543ca	-0.020173926
20	0x3e9df5ec	0.30851686
21	0xbdcd11fe	-0.10013197
22	0x3e5819fb	0.21103661
23	0x3e368f95	0.1782821
24	0x3da4fef5	0.08056442
25	0xbe928806	-0.28619403
26	0xbe9e58e4	-0.30927193
27	0x3e2f1fc9	0.17101969
28	0x3da8d8d7	0.08244484
29	0xbe531c48	-0.20616257
30	0x3dcd9a06	0.10039143
31	0xbe5ed0b6	-0.21759304

23 f4 [4, 2]
0	0x3e465b0c	0.19370669
1	0xbe66444c	-0.2248699
2	0xbec613fc	-0.38687122
3	0x3ed7fd8a	0.42185622
4	0xbefe6246	-0.49684352
5	0xbe9930e6	-0.2992012
6	0xbdf56a38	-0.1198315
7	0xbeb2d402	-0.34927374

24 f4 [2, 1]
0	0x3f07d291	0.53055674
1	0xbd87d63b	-0.06632658
