toy-model.onnx (onnx, 700 bytes, 5 tensors)

l1.bias f4 [4]
0.34631857 -0.21919699 0.12607184 0.24762027
00000000: ab50 b13e 2d75 60be fa18 013e 2b90 7d3e

l2.bias f4 [2]
0.13569117 0.21863085
00000000: a0f2 0a3e c4e0 5f3e

22 f4 [8, 4]
-0.08247304 -0.21088651 0.2561787 -0.18871576 0.048319 0.012259465 0.023435924 -0.16758999
0.12929592 0.22425255 -0.21824324 -0.24367882 0.07311247 -0.03601819 0.29552582 -0.2370377
-0.140556 0.34062037 -0.20820214 0.26242074 -0.00089439825 0.22186442 -0.013645168 0.23216055
-0.19373532 0.20770957 0.2763834 0.25145417 -0.05374587 -0.18507697 0.0025273778 -0.103649974
00000000: a0e7 a8bd a2f2 57be db29 833e b43e 41be
00000010: 25ea 453d ecdb 483c b2fc bf3c b69c 2bbe
00000020: 2666 043e 76a2 653e 287b 5fbe f186 79be
00000030: febb 953d cf87 13bd 294f 973e 03ba 72be
00000040: e9ed 0fbe cb65 ae3e f132 55be 035c 863e
00000050: 0d76 6aba 6d30 633e fc8f 5fbc 7fbb 6d3e
00000060: 8d62 46be d1b1 543e 2082 8d3e 9abe 803e
00000070: a124 5cbd d184 3dbe 5da2 253b 7046 d4bd

23 f4 [4, 2]
-0.12220448 -0.016626 -0.41960156 0.14055425 0.28170007 0.43144035 0.4912985 -0.12837368
00000000: 5846 fabd 4033 88bc 04d6 d6be 74ed 0f3e
00000010: fe3a 903e c0e5 dc3e 7a8b fb3e 6474 03be

24 f4 [2, 1]
0.22266988 0.5677762
00000000: 9303 643e c859 113f
