frameworks/ONNX/models/model_bs200.onnx (onnx, 26259 bytes, 22 tensors)

StatefulPartitionedCall/model/dense_5/Tensordot/Reshape_1:0 f4 [20, 8]
000000 44 71 49 bd 7b d7 6a bd f9 8e 78 3c f7 e8 1c 3e
       -0.049180284 -0.057334404 0.015170806 0.15323244
000010 c8 29 04 bd 35 d9 b2 bd 6d 90 d9 3c 8c 93 95 3d
       -0.03226641 -0.08732835 0.026558125 0.07303533
000020 ad 60 13 bd 71 14 9c bd 12 14 07 be 5b 7d 80 3d
       -0.03598087 -0.076210864 -0.1319125 0.0627391
000030 2d 4e 17 3d b6 87 40 bd bc 5a 52 3d a4 25 09 be
       0.03693979 -0.047004424 0.051356062 -0.13393265
000040 11 5d ee be f8 e8 ec be 65 6d f4 3e 87 21 1c be
       -0.4655538 -0.4627149 0.4773971 -0.15247165
000050 65 e5 a8 bd 19 61 84 be 13 fd 85 be 59 01 14 be
       -0.082468785 -0.2585533 -0.26169643 -0.14453639
000060 6d ec 01 3d 0f de cc 3c 57 b0 74 bd dc 10 89 3d
       0.031719614 0.02500823 -0.059738483 0.06692669
000070 4e c6 d4 3c 59 0d 65 3e ad d0 8e 3e 61 0f b1 39
       0.025973465 0.22368373 0.27893582 0.0003377153
000080 70 d0 b3 3c 74 7a a8 3c 68 cc e4 bc cd 65 a5 bd
       0.021949977 0.020566203 -0.0279295 -0.080760576
000090 27 d6 00 3d ca 33 4b 3d 50 04 02 bc c4 00 8e bd
       0.03145423 0.049609937 -0.0079355985 -0.0693374
0000a0 e5 46 d2 bc fa 69 32 bc b6 08 b3 3d 7b f8 3a bd
       -0.02566857 -0.010889525 0.08741896 -0.045647126
0000b0 ad 3e ac 3c 4c cb 87 3d 55 d7 88 bd 91 da 8d 3d
       0.02102598 0.06630573 -0.06681696 0.06926454
0000c0 03 83 f5 bc 29 16 9a bd 02 cb 22 be f8 b9 bf be
       -0.029969698 -0.07523758 -0.15897754 -0.3744657
0000d0 0c f4 be be 96 ea 84 be 11 c2 64 be de 42 08 bf
       -0.37295568 -0.25960225 -0.22339655 -0.5322703
0000e0 e1 89 52 3b d8 45 65 3b 81 d0 06 bb 5a f0 8b 3b
       0.003212564 0.0034984257 -0.0020571055 0.0042705955
0000f0 81 e1 1f be 0c af 92 bb 6f 5f 7f 39 ee b7 55 3b
       -0.15613367 -0.0044764336 0.00024354247 0.0032610851
000100 d9 4c b3 3d 0d b0 d4 3d 22 d6 9f bc 1b 41 a6 bd
       0.08754892 0.103851415 -0.019511286 -0.08117887
000110 35 b7 2d bd 59 85 2d 3b 99 5c fc bb 14 b3 a9 bc
       -0.042411048 0.0026477186 -0.007701468 -0.020715274
000120 22 94 90 3a 24 98 1d bc e9 9d 3a bd 14 9d 3f bc
       0.0011030475 -0.009618793 -0.04556075 -0.011695165
000130 e8 11 a7 3c 9a 9f 7a bc 4f ba d5 3c 5b fb 68 bd
       0.02039428 -0.015296841 0.026089815 -0.056880336
000140 13 1b da bb 4f bc bc bb 00 86 2a 3c ac e7 0b 3c
       -0.0066560595 -0.005759753 0.010407925 0.008539122
000150 98 61 81 3e ec 98 cf bc 9f 1b c2 bc 65 d7 34 3c
       0.2526977 -0.025341474 -0.023694811 0.011037682
000160 17 98 b6 bc a1 49 27 bd e5 eb 60 bd 25 d6 ca bc
       -0.022289319 -0.040841702 -0.054912467 -0.024760315
000170 a2 c3 f3 ba 2d 11 01 3e 0a 77 0a be d8 2a 39 3d
       -0.0018597732 0.12604208 -0.13521972 0.045206875
000180 c4 9f e6 bc 6c a6 d7 bc 2e eb 12 3d 3e d6 07 bd
       -0.028152354 -0.026324473 0.035868816 -0.0331633
000190 33 12 64 bc 45 0f df 3d 86 e2 6a 3d 4b c8 00 bc
       -0.013920355 0.10891584 0.057344936 -0.007860254
0001a0 54 35 0c 3d d4 6b 11 3d 9f 10 ed bc c4 23 77 3c
       0.034230545 0.035503224 -0.02893859 0.015084211
0001b0 9e 8a 32 3d 38 6d 91 be 71 eb 85 be ee db eb 3c
       0.043589227 -0.2840364 -0.2615619 0.028791394
0001c0 dc 39 28 3e d7 a1 24 3e 1e 36 37 be ff 5c a3 3d
       0.16428322 0.16077362 -0.17891738 0.07976722
0001d0 9a e1 32 3d 0c 97 24 be a1 32 f6 bd d9 e4 9b 3d
       0.04367218 -0.16073245 -0.120213754 0.076120086
0001e0 ae 4a 1c 3b 60 93 b3 3b 99 f8 2e 3c c0 80 66 bd
       0.0023848223 0.005480215 0.0106793875 -0.05627513
0001f0 bb 7c 89 bc 8f c4 86 3d 83 72 86 bd 6e 90 b0 3d
       -0.016783109 0.06580459 -0.0656481 0.08621298
000200 2e d0 a6 bd 07 9d a5 bd 2e d0 ab 3d e4 b2 84 b9
       -0.08145176 -0.08086591 0.083893165 -0.00025310286
000210 66 5e 36 ba ec 56 63 3e f3 ff 75 3e 29 58 16 bd
       -0.00069568155 0.22201127 0.24023418 -0.03670517
000220 d8 0b aa 3d 5b 23 16 3e 7a c2 3a 3e 5f 8e 69 be
       0.0830304 0.14661925 0.1823825 -0.22808217
000230 f6 e1 b9 3d 81 a5 ad 3c 5f 84 c4 3a 53 3c e1 bc
       0.09076302 0.021197082 0.0014993063 -0.027494585
000240 e4 a3 db ba 2f b7 e7 ba b0 13 ab 3a 03 94 85 bb
       -0.0016757217 -0.0017678494 0.0013052132 -0.0040764823
000250 fc a0 40 be 80 ba cb 3c d6 b8 09 3d b8 e1 31 bc
       -0.1881141 0.024869204 0.03362354 -0.010857038
000260 99 ca 38 3b b8 b7 a7 3b 8b bc d9 3b 2e ca 1c bd
       0.002819693 0.0051183365 0.0066447905 -0.03827875
000270 6f 9c 99 bc f7 69 9c 3c 29 7c 0f 3d 68 39 3d bd
       -0.018751351 0.019093497 0.035030518 -0.046197325

StatefulPartitionedCall/model/dense_5/BiasAdd/ReadVariableOp:0 f4 [8]
000000 f7 ca 37 3f 8a bb 32 3f 8e 58 4c 3e 5e 7f 1f 3f
       0.71794075 0.6981741 0.19955656 0.6230372
000010 d7 ed 1b 3f 2f 84 76 3e 05 56 88 3e 25 0f 14 3f
       0.6090979 0.24073862 0.26628128 0.5783561

StatefulPartitionedCall/model/dense_4/Tensordot/Reshape_1:0 f4 [20, 20]
000000 12 77 a6 3f 86 a0 aa 3c d5 31 3b 3c 04 ac b4 be
       1.3005087 0.020828497 0.011425455 -0.35287488
000010 49 f2 19 be ec ef 75 3f 2f ce e7 bc 88 07 2e 3d
       -0.1503383 0.96069217 -0.028296558 0.04248765
000020 37 92 da be f4 a9 8d bd 4b 60 af 3d fe 60 a5 be
       -0.42689678 -0.069171816 0.08563288 -0.32300562
000030 a3 a3 14 3f f2 52 0a 3f 6c 01 73 3e 88 c5 18 3f
       0.5806219 0.54032815 0.23731011 0.5967641
000040 84 f6 4f be 10 bb c8 be 40 55 51 be d3 6b 8e bf
       -0.20308882 -0.39205217 -0.20442677 -1.1126655
000050 a9 38 73 bf a9 5a 0f bf 9e 7e 66 be f8 e6 95 be
       -0.9500833 -0.5599771 -0.22509238 -0.29277778
000060 0b 2e 39 bf 1f 40 a9 bd 78 2d 64 3e 7a 05 7a bd
       -0.7233588 -0.08264183 0.2228297 -0.06104038
000070 92 95 f2 3e be 5f 1e 3e 68 41 9a 3e 2b 59 84 bf
       0.47379738 0.1546621 0.30128026 -1.0339712
000080 0e 6e f7 3e b4 38 11 bf 3f a0 14 be c8 6e 0d be
       0.48326153 -0.5672715 -0.14514254 -0.13811791
000090 d8 d6 22 3f 92 7e 94 3d f4 82 2b 3e be 12 0b be
       0.63609076 0.07250704 0.16749173 -0.13581368
0000a0 df 57 d2 be 0e 15 1c be 3f 30 09 3c e0 d2 e8 3c
       -0.41082665 -0.15242407 0.008373319 0.028420866
0000b0 01 0a 46 be 22 5a c2 bd 76 9d 21 3d 07 3f c7 bf
       -0.19339754 -0.09489848 0.039456807 -1.556611
0000c0 ce a1 44 3f 1c 78 91 be c2 ed 30 bf fe 2a 37 bd
       0.76809394 -0.2841195 -0.6911279 -0.044718735
0000d0 f7 f7 a6 be 7f 0c d5 bd a0 d2 43 ba 5f b9 0b bd
       -0.32611057 -0.10402774 -0.0007470045 -0.03411233
0000e0 25 63 9c bd 8c ad e8 bd fc 3f cc bf 2f 5b 23 bf
       -0.07636098 -0.113612264 -1.5957026 -0.6381101
0000f0 38 16 15 bf e7 1a 0c bf 6e 42 0c bf 39 a5 6f 3e
       -0.5823703 -0.5472855 -0.54788864 0.23402871
000100 1e a5 71 3f a0 5c b7 3e 9d d8 9a 3e 4b 21 7f be
       0.94392574 0.35812855 0.30243388 -0.24915044
000110 51 d0 bb 3d 21 1f 7b 3e aa 8d 10 bd b3 20 0d bf
       0.091705926 0.24523593 -0.03529135 -0.5512802
000120 7a 8e ee 3d 39 9f 08 3f fc 12 5a be e4 76 c1 be
       0.11648269 0.53367954 -0.21296304 -0.3778602
000130 50 5b a0 be bd 98 69 3e 2d bc 18 3d f5 e5 54 3f
       -0.31319666 0.22812171 0.037288833 0.83163387
000140 eb 9b cc be 8c 02 a4 be 07 62 62 bd 03 de 02 3f
       -0.39962706 -0.32033193 -0.055269267 0.51120013
000150 ab e3 7c 3e fb 6d 3f 3f e8 fb 97 3e cd d8 00 be
       0.24696223 0.7477719 0.29684377 -0.12582703
000160 f5 49 ae 3e 2f f5 54 be 66 6a 52 3d 12 b6 a9 be
       0.340408 -0.20796655 0.051371 -0.3314672
000170 55 e3 46 3f d9 c7 d6 be a8 c9 3b bd 7b 74 54 3e
       0.7769063 -0.41949347 -0.04584661 0.20747559
000180 fa 92 f9 3e b7 6b 8b 3e 47 7f 3c bd e9 fa 10 3f
       0.48744947 0.27230617 -0.04601982 0.5663286
000190 7d a4 e8 3d b8 70 ab 3e f7 cc 3b bd 43 92 50 be
       0.11359499 0.33484435 -0.045849767 -0.20368294
0001a0 28 b4 44 bf 78 7c 95 be f0 b3 13 3c 6a 1f 1f 40
       -0.76837397 -0.29196525 0.009015068 2.4862924
0001b0 71 9d b0 be 64 66 81 bf dd 3f 5c 3f 90 eb 12 3d
       -0.34495118 -1.0109372 0.8603495 0.03586918
0001c0 ea 78 41 3f 0c 92 ff bd 11 21 bc 3e 2e b7 fa 3c
       0.75575125 -0.12479028 0.36743978 0.030604925
0001d0 9d 56 55 3e 74 d9 a5 3d 8e 8b b4 3f 4d b3 7e bf
       0.20833822 0.080981165 1.4105089 -0.9949234
0001e0 87 66 bc 3e 98 8a f9 bc a3 45 8e 3c 2f 09 2b 3d
       0.36796972 -0.030461594 0.01736719 0.041756805
0001f0 53 be 09 bf 79 ab 65 be f4 29 a0 bc cf 2d c3 be
       -0.53806037 -0.22428693 -0.019551255 -0.38120887
000200 0b 97 16 bf 1b 3e a5 bf 25 f4 3b be 82 97 e1 3e
       -0.58824223 -1.2909578 -0.18354852 0.44060904
000210 6f 2f 01 bf 0d a3 61 bd 2f ac 09 bf bb e9 0d bf
       -0.50463 -0.055087138 -0.53778356 -0.5543477
000220 d4 66 f7 bf 39 59 4d 3e 2f b4 7a 3d 6c c4 8d bd
       -1.9328256 0.20053567 0.061206993 -0.0692223
000230 19 15 07 bf d5 fc 40 3c 58 dc ae 3e 63 ff 91 bd
       -0.5276657 0.01177903 0.34152484 -0.07128789
000240 e4 af 1f 3e 8d 99 5d be 5c fc cb bc 5c 5d 41 3f
       0.1559444 -0.21640606 -0.024900608 0.7553308
000250 49 ba 08 be 72 a3 71 3e 9f fe 21 3d d5 ce 92 3e
       -0.13352312 0.23597506 0.039549466 0.28673425
000260 17 6e 5f be 28 3e af be f6 cc 52 be fc b8 9c 3d
       -0.2181934 -0.3422711 -0.20585999 0.076524705
000270 2f 14 c3 bf e9 e8 4c bd be 1f 92 3e 41 fe 34 3d
       -1.5240535 -0.050026808 0.28539842 0.044187788
000280 ca 70 a9 bf 3e 2f 4f 3e d4 72 b7 be 5e 5f e2 bd
       -1.3237545 0.20232865 -0.35829794 -0.11053346
000290 ad 33 38 3d 7d ad 28 3f a5 c3 5c 3b b0 b5 29 3f
       0.044971157 0.6588972 0.003368595 0.6629286
0002a0 d7 e3 9e 3e 9f cf 39 bf cb 76 63 be 5b a2 97 3f
       0.31033203 -0.7258243 -0.22213285 1.1846422
0002b0 20 2b 03 3f bf b8 30 3f 59 92 90 3d c1 c0 91 3e
       0.5123768 0.690319 0.070591636 0.28467372
0002c0 7a bd 73 3f e8 77 0a 3e ad 91 06 3e 85 b7 8f 3f
       0.95210993 0.13522303 0.13141508 1.1227881
0002d0 6f 6a f3 bb a7 c0 3f 3e c9 7a 55 be 32 7b b9 be
       -0.0074284594 0.18725835 -0.2084762 -0.36226803
0002e0 03 4c 92 bf de 97 1b 3f 61 b1 84 3d 2e ae 98 be
       -1.1429447 0.60778606 0.06479145 -0.2982039
0002f0 25 bb 56 bf 65 57 7c bf 3b 4c 09 3e 37 c5 7c bf
       -0.8387931 -0.98570853 0.13407986 -0.98738426
000300 70 fd 99 3f 5d 91 0a be b7 cd 9f 3e ad 85 6d be
       1.2030468 -0.13532014 0.31211635 -0.23195525
000310 ae d5 c1 3f 04 91 80 be 97 e1 65 3e db 26 33 3f
       1.5143335 -0.25110638 0.22449337 0.69981164
000320 1f 77 a5 bd 5b c9 13 be f3 64 b0 bc 4c 09 fe 3c
       -0.08079361 -0.1443228 -0.021532511 0.031010292
000330 ec 20 d8 be 69 c9 5c 3e 57 9e ad 3d 30 c4 d6 3e
       -0.42212617 0.21561207 0.084774666 0.41946554
000340 ac be f0 3e d0 ae eb be 24 7a a9 bf 53 c1 50 3d
       0.4702047 -0.4603181 -1.3240399 0.05096562
000350 a6 9d 9b bb 71 a5 8e 3d 60 8d eb 3d e1 34 d3 bd
       -0.004749018 0.06965149 0.115015745 -0.1031282
000360 78 7e ad 3e 88 5d 1b bc c6 b0 68 3f 2f 0e 0f be
       0.3388555 -0.009482749 0.90894735 -0.13970254
000370 20 df ff 3e 35 16 4d 3e b5 93 98 3c 2e 64 8c 3e
       0.49974918 0.20028003 0.01862512 0.2742018
000380 f3 53 31 bf 49 e7 60 3d 72 4a 68 bd cc 44 71 3f
       -0.6926872 0.05490807 -0.05671162 0.942456
000390 20 8e 24 bf 66 6d ce 3f c7 40 a1 3d e5 5f e1 3e
       -0.64279366 1.6127136 0.078736834 0.44018474
0003a0 c2 fc 9f bf b2 f7 31 3e 92 9d 17 bf 29 56 98 3e
       -1.249901 0.17379645 -0.5922481 0.29753235
0003b0 5b d2 0b c0 7c 35 2a 3a 1a a8 01 bf 4e 24 05 3f
       -2.184714 0.0006492955 -0.5064713 0.5200852
0003c0 00 5f 8b 3e 9b 0d 31 be 53 37 2c 3e b7 8a fe bc
       0.27220917 -0.17290346 0.1681798 -0.031072004
0003d0 47 77 35 bf a3 28 60 be 38 f8 82 3d e5 65 98 bd
       -0.7088513 -0.21890502 0.06395 -0.0744131
0003e0 75 7b 12 3f ba 32 0d 3e 5d 11 cd bc 73 0d b2 be
       0.5721963 0.13788882 -0.025032694 -0.34775886
0003f0 ac ce 79 bd 42 a4 0f bf 46 f7 81 3f 36 f7 15 bf
       -0.060988113 -0.5611001 1.0153587 -0.5858034

StatefulPartitionedCall/model/dense_4/BiasAdd/ReadVariableOp:0 f4 [20]
000000 8b f2 70 be 3f a0 bf 3d ec 97 8a 3d 74 85 5b be
       -0.23530023 0.093567364 0.06767258 -0.21437627
000010 43 e4 f6 be c0 c1 24 be 5c 95 08 bf 25 1b 51 bf
       -0.48221025 -0.16089535 -0.53352904 -0.81682044
000020 12 15 6c bf 00 88 fc bd eb 3d 74 3e 1e ea f5 be
       -0.9221965 -0.123306274 0.23851745 -0.4803018
000030 48 f9 96 be 19 8b 2b 3e 99 70 a2 bd eb 1b 91 be
       -0.29487062 0.1675228 -0.079316325 -0.28341612
000040 5b 44 77 be 6b fe f4 be 85 cf 14 bf 3e e0 e5 bf
       -0.2414717 -0.47850356 -0.5812915 -1.7959058

StatefulPartitionedCall/model/dense_3/Tensordot/Reshape_1:0 f4 [20, 20]
000000 1c 84 7e 3e 5c 1a ec be 6b 83 a9 3e fa 10 13 3e
       0.24855083 -0.4611386 0.33108076 0.14361945
000010 0a 8c 9f 3e 98 f5 7e 3e 16 97 a5 3d 60 96 e2 be
       0.3116153 0.24898374 0.08085458 -0.44255352
000020 67 61 0d 3e 43 56 67 3c 0b 4a a8 bf a2 2f a6 be
       0.13806687 0.0141196875 -1.3147596 -0.32458216
000030 95 c4 80 be 8a 84 68 bf 87 d4 97 3f 83 b6 60 be
       -0.2514998 -0.9082724 1.1861733 -0.21944623
000040 19 d1 0d 3e 5e a3 80 3e a5 b1 5e bd 92 8c 31 3e
       0.13849296 0.2512464 -0.054368634 0.1733878
000050 48 1b 6d 3f 8e fe 1e bf 42 77 9a bd 64 d3 51 be
       0.9261975 -0.6210717 -0.07542278 -0.20490795
000060 05 06 a5 3b 34 dc 50 be 6c 25 47 3f 73 8a b2 be
       0.005036118 -0.20396501 0.77791476 -0.34871253
000070 ac ec 9c 3d c3 2a 88 bd c5 45 15 bc ed 1e df bd
       0.07662329 -0.06648781 -0.009110873 -0.108945705
000080 39 4c bd be d5 86 a9 3c 63 b9 a1 3d 35 7d 9e 3c
       -0.36972216 0.020694176 0.07896688 0.019346813
000090 58 5b 4c bf 9b d9 e7 bd 8e 84 9f 3e e2 8a 11 3f
       -0.7982688 -0.11320802 0.3115582 0.56852543
0000a0 c5 3e eb be 34 78 5a be 43 31 8f 3d aa d0 1a be
       -0.45946327 -0.21334916 0.06991818 -0.15118662
0000b0 15 3d 8f 3c f1 07 8c be 2a b1 56 bf 37 3e 13 3e
       0.01748518 -0.2734981 -0.8386408 0.14379202
0000c0 fd a8 17 be 26 78 e6 3c bb 7b 8f bf 80 d2 a7 bf
       -0.14810558 0.028133463 -1.1209635 -1.3111115
0000d0 45 3c 4c 3e 46 dd 6b bf c3 70 e2 3c f8 24 09 be
       0.19944866 -0.9213451 0.02764166 -0.13393009
0000e0 3d 92 86 be 3a 13 bf be c7 d2 f3 bd 3b 56 d9 be
       -0.26283446 -0.37319356 -0.11905437 -0.424486
0000f0 b3 0d 22 be fb 51 bb bf 52 bf 6d bf 34 aa 62 3e
       -0.15825538 -1.4634393 -0.92870057 0.2213524
000100 51 c9 61 3e 1d d5 aa 3d dc fc 1b 3f 5b 75 5b 3d
       0.22049452 0.083414294 0.6093271 0.053578716
000110 4d 20 96 bd 96 e5 8d bc 04 f0 ba 3e b8 c1 6d bf
       -0.0733038 -0.01732139 0.36511242 -0.92873716
000120 e0 4c 51 3c 37 47 76 3f 40 62 40 3f e9 8c 68 be
       0.012774676 0.96202415 0.7514992 -0.22710003
000130 b1 bf 68 3d 16 25 cd 3e dc f8 d3 bd c3 ae 20 bf
       0.056823436 0.40067357 -0.103502005 -0.62766665
000140 c9 60 20 3e 2e 65 99 bf 15 5b 8a bd 1f 4c 04 bf
       0.1566192 -1.1984003 -0.06755654 -0.5167865
000150 f1 4a 83 bd 79 f4 b0 bd 5f 22 29 3f ca ba f3 be
       -0.06410778 -0.086403795 0.6606807 -0.47603446
000160 2b d8 d7 be c5 7e bf 3d e9 33 91 be 56 88 d4 3e
       -0.4215711 0.09350351 -0.28359917 0.41510266
000170 73 3e 0d bf 73 8d 9b be cd 22 82 3d 0d 33 9f be
       -0.55173415 -0.30381355 0.06354294 -0.31093636
000180 c7 cc 92 bf ed b0 5e 3d 48 98 ab 3e 90 72 0f 3e
       -1.1468743 0.05436795 0.3351462 0.14008546
000190 12 b9 d5 3d 62 5a c7 3c 57 29 45 bf f4 e2 ec 3b
       0.1043569 0.02433509 -0.77016205 0.0072292034
0001a0 7a d0 ea bc 06 b1 6f 3f c9 e4 d4 bc b1 36 1e 3e
       -0.028663862 0.9362949 -0.025988 0.1545055
0001b0 0b 70 38 3d c3 d9 8c be d5 03 c2 3f 31 89 cf be
       0.045028728 -0.2750989 1.515742 -0.40534356
0001c0 67 c4 50 bf 8c cf cb be 53 c0 8c bf cd 01 f2 be
       -0.81549686 -0.39806783 -1.0996193 -0.47267
0001d0 19 4d 8e bd 7c 36 33 3f 7c 07 5a bc 60 00 dc 3c
       -0.06948299 0.7000501 -0.0133074485 0.026855648
0001e0 4a ad 65 3c c8 11 2e 3d c1 51 c2 be 8e ce e6 bc
       0.014018366 0.042497426 -0.37952998 -0.028174665
0001f0 2f 60 b6 3c bd 5a 0d 3f dc e8 c3 be d7 b6 9c 3e
       0.02226266 0.5521658 -0.38263595 0.30608246
000200 1c 5e 4a 3e 73 34 11 bd 96 c9 9a be 4b cb b8 be
       0.19762462 -0.03545041 -0.30231923 -0.360926
000210 9d bd a2 3b 1a ee 2a bf 38 00 73 3f 74 f4 18 3e
       0.0049664513 -0.66769564 0.9492221 0.14937001
000220 4c c1 23 bd 7d d2 30 3e 8f e2 c5 3c 15 f0 a5 3e
       -0.039979264 0.17267795 0.024155883 0.3240973
000230 28 cc a1 be c3 a4 74 3f 23 bd c2 be 0c c4 05 3d
       -0.3160107 0.95563906 -0.38034925 0.032657668
000240 75 79 30 be 25 13 3c 3e cf 87 b0 bd eb d2 85 3e
       -0.17233832 0.18366678 -0.086196534 0.2613748
000250 fd 1a be be d8 d8 69 bd a4 5c 4d bf 38 d6 2f 3f
       -0.37129965 -0.057091564 -0.80219483 0.68686247
000260 0a 78 9f 3f 31 d3 cd be b4 82 9f 3e ab 7b 7a 3e
       1.2458508 -0.4020019 0.31154406 0.24461238
000270 d9 4a d0 bd 28 bb d9 3d 9f 37 11 3d 75 cf 7b bf
       -0.10170526 0.106314 0.035453435 -0.9836343
000280 3a 5d 37 3e 96 09 b3 3f e7 5d a8 3e 8a e0 a5 3d
       0.17906657 1.39873 0.32884142 0.08099468
000290 ca 8c 5e be e8 2b b2 3b 26 d6 8f 3e 67 ec 50 be
       -0.21733394 0.005437363 0.2809307 -0.2040268
0002a0 04 ba b2 be 6b 0c 38 bf a8 2e a1 3d d4 9c 40 40
       -0.34907544 -0.7189395 0.07870227 3.009572
0002b0 44 2e 6d 3f 07 da 80 3f c5 1e dc 3c 60 61 81 3f
       0.9264872 1.0066537 0.02687014 1.0107841
0002c0 9f 1a e1 bd ff de 63 be 78 b3 1b 3e cd e7 4b 3f
       -0.10991406 -0.22253035 0.1520518 0.79650575
0002d0 9a fc 4f 3f 34 ed c4 3e df ea 31 be a8 cb 0c 3e
       0.81244814 0.38462222 -0.17374752 0.13749564
0002e0 48 ce 93 3d e5 45 36 bd 9c cc bd 3e 91 eb 8c 3e
       0.072170794 -0.04450025 0.37070167 0.27523473
0002f0 cd ba 97 3e 3f ed 1e 3f e3 c8 92 3d ea 3c 55 3f
       0.29634705 0.6208076 0.07167222 0.8329607
000300 0d e1 6f 3d b3 30 20 3f 3b 3d 1b 3e d2 ea 00 3f
       0.058564235 0.6257431 0.15160076 0.5035831
000310 5c 37 8d bf 16 18 0e bc b2 87 97 3e c0 7d 50 3f
       -1.1032519 -0.008672735 0.29595715 0.8144188
000320 e1 02 af be 86 93 2f bf 4f 2d ad 3e b3 27 4d 3d
       -0.34181884 -0.6858448 0.3382363 0.05008669
000330 75 b6 9e 3d 5c 46 c5 3e 83 da 16 3f fb aa d0 bc
       0.07749645 0.38530242 0.5892717 -0.025472155
000340 2b b2 f1 3d 2e 95 39 3e 86 0f 2e be 54 65 a3 be
       0.11801561 0.18123314 -0.16998109 -0.31913245
000350 6b 2e 1f 3e 72 32 c1 be 3b 32 06 3d 27 f5 49 bd
       0.15545051 -0.377338 0.032762747 -0.04930606
000360 dc 2f d9 3c f0 2c 54 be b2 44 77 bd bb 89 79 3e
       0.026512079 -0.20720267 -0.060368247 0.24368946
000370 b5 10 44 3d 9a 41 9f bd a5 43 15 40 fa b2 44 3d
       0.047867496 -0.077761844 2.3322537 0.048022248
000380 a2 c1 c6 3d ff 89 d3 be 32 ad 9c bd ee 40 a9 be
       0.09704901 -0.4131622 -0.07650222 -0.3305735
000390 d7 e7 ee 3e 68 30 e6 bd a6 8b 88 bf 42 d2 1e 3e
       0.46661255 -0.112397015 -1.0667617 0.15509894
0003a0 b1 0b 16 bf 2d e3 20 bf 21 06 98 bf 90 4f 99 bd
       -0.5861159 -0.6284664 -1.187687 -0.074858785
0003b0 eb df 3e 3e 83 9f 1c bf 96 a2 32 3c b7 0c 35 3f
       0.18640105 -0.61180896 0.010903021 0.70722526
0003c0 5e 3f eb be 08 d8 46 bf ae fb 2a 3e d4 e1 57 bf
       -0.45946783 -0.7767339 0.1669757 -0.8432896
0003d0 14 ff 1b 3f 56 31 90 3d 27 51 0c 3f 3f 52 52 3f
       0.60936093 0.0704066 0.5481133 0.8215675
0003e0 8b 36 c1 bf 06 e6 bb bf 6f fb 8c be 03 df b2 3e
       -1.509477 -1.4679573 -0.2753558 0.3493577
0003f0 3d 0c 20 3f 74 f1 08 3e 4f 67 cc bd 71 a0 e3 3e
       0.62518674 0.13373357 -0.09980642 0.44458345

StatefulPartitionedCall/model/dense_3/BiasAdd/ReadVariableOp:0 f4 [20]
000000 e2 2b 15 3c fe 0a 3e bf b6 1a 44 3e 52 a3 d9 3d
       0.009104701 -0.7423552 0.19150814 0.10626854
000010 de b1 7d bf 36 c0 85 bf 8b e8 cb bd 96 ee 96 be
       -0.9909953 -1.0449283 -0.099564634 -0.29478902
000020 76 53 8a be f2 97 4d be 4b f6 75 be 40 27 9a bf
       -0.270168 -0.20077494 -0.24019735 -1.2043228
000030 6c 5f 8a be ff 8c 1f bf c3 c8 31 3e f3 34 a7 bf
       -0.27025926 -0.6232452 0.17361741 -1.3063034
000040 f6 f1 b9 bd 03 70 7c bf 4e af 1b bd 29 12 e2 be
       -0.090793535 -0.98608416 -0.03800898 -0.4415448

StatefulPartitionedCall/model/dense_2/Tensordot/Reshape_1:0 f4 [20, 20]
000000 ae 6b a7 3e 3c e0 31 3e 35 b5 07 bf 2a 83 f5 3e
       0.3269934 0.17370695 -0.53010875 0.47951633
000010 af d2 0e bd 18 ea d1 be 65 27 17 3f 4a ac db be
       -0.034868892 -0.40998912 0.59044486 -0.42904884
000020 77 80 17 3e 06 d1 0a be a5 18 7f 3e 9f 09 4c bf
       0.14795099 -0.13556299 0.24911745 -0.7970218
000030 18 1c ff bd 18 33 96 bd ca 74 9d be 0f 2f 86 3e
       -0.1245653 -0.07333964 -0.30753165 0.26207778
000040 e2 ab 54 bf e1 20 7a 3e c0 4f 26 bf 42 d2 6f bf
       -0.8307477 0.24426605 -0.6496544 -0.936802
000050 a6 08 93 3f 12 33 15 3d cc dd ff bc 37 96 ca 3f
       1.1487014 0.036425658 -0.03123369 1.5827092
000060 8f 50 5d 3e e6 6a 56 be 7a 22 c7 3f f5 68 91 3f
       0.21612762 -0.20939216 1.5557396 1.1360155
000070 23 4d fe bd cb 54 d3 3d 26 71 91 be f4 4f 9f bf
       -0.124170564 0.10318907 -0.28406638 -1.2446275
000080 f6 60 35 3d 46 c8 a7 3c 1c d0 ef 3e b0 dc 6e be
       0.044281922 0.02048124 0.46838462 -0.23326373
000090 16 ee 54 bf 7a 17 0d be e7 7c 56 3d 0a 51 28 bf
       -0.8317579 -0.13778487 0.05236521 -0.65748656
0000a0 0f 1d 36 bf 70 6c fa 3e 4a 89 7e bf 07 6f ec be
       -0.7113809 0.48910856 -0.99428236 -0.46178457
0000b0 bd ad 2f be 13 a5 e9 3d 4b d1 a5 be d5 17 d3 3e
       -0.1715612 0.114084385 -0.3238624 0.4122912
0000c0 69 60 5c 3e de 4a 23 be 05 bf 52 3e cc 29 02 bf
       0.21521153 -0.15946528 0.2058068 -0.50845027
0000d0 81 c2 b3 bd f4 b2 ac 3d e3 de 02 be 7d 15 96 3d
       -0.08777333 0.0843257 -0.12780337 0.07328317
0000e0 b0 a6 b5 3e a8 7c 19 3d 27 88 fe bc 3b ae ba be
       0.35478735 0.037472397 -0.031070782 -0.36461052
0000f0 fc f2 5b 3c 44 77 eb 3d de 2d 04 3e f8 06 a7 3e
       0.013424631 0.114973575 0.12908122 0.32622504
000100 f9 01 03 3f 3a 8e 43 bd ef fc 63 be dc 7e 90 3e
       0.51174885 -0.04774306 -0.22264455 0.28221786
000110 a2 ce f5 be ea 36 0f be c2 39 da 3e 99 fe 64 3c
       -0.4800921 -0.13985792 0.4262219 0.013976716
000120 51 63 08 bf d6 c0 16 bf 99 40 9d be 7a 3b 20 3f
       -0.53276545 -0.58887994 -0.30713347 0.62590754
000130 d6 21 95 bd 2d 69 c8 be f8 90 8a 3d 0a 91 12 3e
       -0.07281844 -0.39142743 0.06765932 0.1431314
000140 c2 80 35 be d1 cb 00 3f b8 d8 c3 bd 4d 0d 7e be
       -0.17724898 0.50311 -0.0956282 -0.24809761
000150 f3 b6 f1 3e a8 91 3a bc a5 57 89 be d1 19 6d 3e
       0.47209892 -0.011387266 -0.2682468 0.2315438
000160 2a a1 e8 3d a8 fc 17 3f 7a 64 eb be ca 31 05 3e
       0.113588646 0.593699 -0.45975095 0.13007274
000170 c7 c2 07 be 0f 41 ca be 31 72 7c be b1 d0 1d 3f
       -0.13257895 -0.3950276 -0.24652936 0.6164656
000180 04 b7 fa bd cd 4e 5c bd 20 cd f3 3e 0c 62 88 3d
       -0.12241939 -0.053786088 0.47617435 0.06659326
000190 46 ff 4a 3d ff 87 1e be 9a f5 49 3d d9 6e 32 3d
       0.049559854 -0.15481566 0.04930649 0.043562744
0001a0 de fc 3e be c6 ca 98 be 49 76 05 bf 71 b3 c2 bd
       -0.18651149 -0.29842204 -0.52133614 -0.09506882
0001b0 43 c2 19 bf 6f 38 41 be 61 b1 8c 3d ba ec 13 3d
       -0.60062045 -0.18869184 0.0686977 0.036114432
0001c0 ad 22 9a be bd 9f d8 bd aa e7 ec bf 1e 97 6b be
       -0.3010458 -0.10577343 -1.8508198 -0.23006865
0001d0 f1 b5 6c be 99 4a a8 bf 6d 2a 2f bf 47 f2 05 bf
       -0.2311628 -1.3147765 -0.6842411 -0.5232281
0001e0 a2 de 7e be a6 19 10 3e d5 61 cf be ee fe f9 3d
       -0.24889615 0.14072284 -0.40504327 0.12206827
0001f0 51 05 f9 3d af 1c d5 3e 0c 3e 23 be 27 f2 8a bf
       0.12159217 0.41623446 -0.15941638 -1.0855149
000200 e0 0d 19 bd aa a2 b0 bc e1 28 22 bf 57 f5 fc 3d
       -0.037366748 -0.02156194 -0.63343626 0.12351482
000210 4e ea c7 3e d9 cb b6 be fd c9 49 3f b8 8d 59 3f
       0.39045948 -0.35702398 0.78823835 0.8498187
000220 69 a8 01 3f 5d a4 1d 3f 42 22 66 3e 8b ad 94 3e
       0.506476 0.61578923 0.22474006 0.29038653
000230 da bc 04 bd 61 97 fd 3d 5e a4 fc 3d 34 43 65 be
       -0.032406665 0.12382389 0.12336038 -0.22388917
000240 35 c1 2c 3b 3e 5a e9 bd 99 64 9d be c9 1c 72 bd
       0.0026360278 -0.113941655 -0.30740812 -0.059109483
000250 5b ea f5 3b 0a 51 3b bd 4d ae 90 bd 16 e7 22 be
       0.007504744 -0.04573158 -0.07064495 -0.15908465
000260 6c e9 a8 bc ef fe dd 3a 56 f1 fc 3b 08 39 9e bb
       -0.020619117 0.0016936938 0.007719199 -0.004828576
000270 df 50 f5 3d 2c 49 b7 3b 14 6d df bd 5a 3e 09 be
       0.119783156 0.0055934396 -0.10909477 -0.13402691
000280 2c 98 85 3e 31 d2 46 bf c4 dc 6b be e9 52 55 3f
       0.2609266 -0.77664477 -0.23033434 0.83329636
000290 bb af 18 bf 1f 0f 34 bd 63 df 06 be 1d b7 87 be
       -0.59643143 -0.043959733 -0.13171153 -0.26506892
0002a0 68 94 e2 bf fe 63 9e bf fc 71 02 be aa 31 cf 3d
       -1.770154 -1.2374265 -0.12738794 0.101168945
0002b0 19 de 20 3f 21 a4 32 3f 65 a8 c9 3d 78 a1 e6 3e
       0.62838894 0.6978169 0.09846572 0.45045066
0002c0 02 56 19 3e 6d 92 a4 3d a7 37 6d bf 1f 28 0f bd
       0.14974216 0.08035741 -0.92663044 -0.03495037
0002d0 8e 4b 20 bd 75 df 4b 3d b2 9f 84 be 33 77 ab 3c
       -0.039134555 0.049773652 -0.25903088 0.020930862
0002e0 f6 18 f9 bc 34 aa 1b be fd 5d 56 3d 90 59 43 3e
       -0.03040741 -0.15201646 0.052335728 0.19077134
0002f0 5c b6 54 3a bb 19 10 bc 2e a7 ed 3c 4b dc 46 be
       0.0008114332 -0.008795197 0.029010382 -0.19419973
000300 bc e2 59 bb 16 11 54 3b b5 88 0e bd e5 ff 73 bb
       -0.0033246716 0.0032358817 -0.034798343 -0.0037231382
000310 d6 f9 f8 3d 14 81 e6 bb f9 51 8f 3d af 57 2f 3d
       0.121570274 -0.0070344303 0.06998057 0.04280823
000320 d0 b8 80 bd 18 2e 5a 3d 86 da c2 3b 08 d1 8c bd
       -0.0628525 0.053266615 0.00594646 -0.06875807
000330 1b ca 99 3b 49 3a 34 3d b8 55 03 bd 34 d8 67 3e
       0.0046932823 0.044000898 -0.03206417 0.22641069
000340 e7 7e 5a bc 45 e4 34 bc ae 99 94 3d a8 d1 8d bd
       -0.01333592 -0.011040752 0.072558746 -0.069247544
000350 44 40 9f 3a 00 bf 1b 3c 45 15 44 3d 9b c6 0f bc
       0.001214989 0.009505987 0.047871847 -0.008775379
000360 b3 e9 c5 bd 89 c6 a8 bb 86 16 b2 bc 65 4d 31 3e
       -0.09663715 -0.0051506204 -0.021739256 0.1731468
000370 a0 5e 2a 3a 66 9e 51 3e 4f 27 4c bd 0c 1c 90 3e
       0.00064990856 0.2047058 -0.049842175 0.28146398
000380 7c 2c d7 3d ab e0 c1 be 0a 89 91 be 47 5f ce 3e
       0.105065316 -0.3786672 -0.28424865 0.40307066
000390 4d 9c 29 bf 37 61 a3 be c9 1c 41 3e 6a 2b 41 3d
       -0.6625412 -0.31910107 0.18858637 0.047160544
0003a0 12 9a f3 be 73 30 79 3d 2b f2 ac bf da 9a c6 be
       -0.47578484 0.06083722 -1.3511404 -0.38790017
0003b0 87 62 ca 3d b0 77 95 bf 24 78 04 bf 77 39 44 3e
       0.09882074 -1.1677151 -0.5174582 0.19162546
0003c0 d9 19 6b 3e 57 93 10 be b2 fb 31 3c 8c 0f 48 3e
       0.22959079 -0.14118706 0.0108632315 0.1953718
0003d0 84 4d dc 3d 57 a7 c7 3d 70 dc b9 be 75 b1 43 be
       0.107569724 0.097487144 -0.36300993 -0.19110663
0003e0 01 46 da bd 31 f6 33 3d b7 46 7a bd 54 71 2b 3e
       -0.106578834 0.04393596 -0.061102595 0.1674245
0003f0 84 8e ef 3b 0f dc ba bc 5f e4 2b be 55 fa ab bc
       0.0073106904 -0.02281001 -0.16786335 -0.020993391

StatefulPartitionedCall/model/dense_2/BiasAdd/ReadVariableOp:0 f4 [20]
000000 94 56 dc be da eb 0c be 49 0a 4b 3e 12 b1 3a be
       -0.43034804 -0.13761845 0.19828142 -0.1823161
000010 11 f7 25 be 76 23 9b be 37 25 f3 be e3 da 15 3e
       -0.1620753 -0.30300492 -0.4748933 0.1463428
000020 b3 d7 0b bf 32 ab 9f be 9c a4 03 3c 01 4f b9 3e
       -0.54626006 -0.311853 0.008034851 0.36193088
000030 0f 12 f6 be 29 b4 ea bd f9 ae bc bf 6d 2f 36 bf
       -0.48060653 -0.11460144 -1.4740897 -0.71166116
000040 ac da e7 3d 0a 13 ca bf c0 a4 0d bf 72 d9 79 3d
       0.11321005 -1.578706 -0.55329514 0.060998388

StatefulPartitionedCall/model/dense_1/Tensordot/Reshape_1:0 f4 [20, 20]
000000 d2 4b 86 3e 73 3f 04 be 74 70 4b 3e 34 17 3d 3f
       0.2622972 -0.12914829 0.19867116 0.7386353
000010 4a 50 64 3f d4 e7 8c 3d a2 9e aa 3f f5 fa 1e be
       0.8918501 0.06880155 1.3329661 -0.1552542
000020 8f ad 15 3e 1d 6c 9b be 25 67 1e bd 85 ea 24 bd
       0.14616989 -0.3035592 -0.038672585 -0.040262718
000030 01 b1 c0 3c f7 6a 98 3e cb 29 0b 40 02 e9 be bd
       0.023521902 0.29769108 2.1744258 -0.093217865
000040 7d a8 80 3f 5b 03 ae 3e 54 bf db 3f fb a1 49 3f
       1.0051419 0.33986935 1.7167764 0.7876279
000050 6c c6 de bf f8 51 88 bf 37 93 98 3f fa bd 0a be
       -1.7404304 -1.0650015 1.1919926 -0.13549033
000060 6a 5f 95 3e 65 23 82 be 88 19 13 3f 7e bd f4 be
       0.29174358 -0.2541763 0.5746083 -0.4780082
000070 1e 93 a3 3d c9 6a 24 be b6 90 f0 bc e2 e0 11 3e
       0.07987045 -0.1605636 -0.029365879 0.14245942
000080 ec 83 8b be 2c 8c 86 be 6a 2f 7a be 25 2a 65 be
       -0.27249086 -0.26278818 -0.2443215 -0.22379358
000090 6b 4a 93 bf 03 4d 9c bd 29 9f d2 3f e2 35 95 3f
       -1.1507086 -0.07631876 1.6454822 1.1657069
0000a0 0f 73 90 3e 4e a6 5a bd cd df 79 3e 7f cc 3c 3f
       0.28212783 -0.053381257 0.2440178 0.73749536
0000b0 15 37 3b 3f e9 5b 1c bd 7f b7 ee 3e 03 0e 87 3e
       0.73130924 -0.03817359 0.4662437 0.26377878
0000c0 62 5c 79 bf 36 fa 2f be aa 2d 3b be cd 46 90 be
       -0.9740659 -0.17185292 -0.18279138 -0.28179017
0000d0 48 f5 b2 bc 6e 1b 19 c0 dd fa 74 3e 45 94 62 be
       -0.021845475 -2.3922992 0.23923822 -0.22126873
0000e0 5a 28 01 3d c5 b7 90 3d 92 85 46 be ab 69 9e 3e
       0.031532623 0.07066301 -0.1938689 0.30939993
0000f0 24 84 04 3f 05 5b 94 3e 2d ac 87 3d df eb 23 3f
       0.5176413 0.28975692 0.06624637 0.64031786
000100 15 0b 38 3f 52 3d 13 be 25 3a 14 3f 3d 94 96 be
       0.7189191 -0.1437886 0.5790122 -0.29409972
000110 de 0b b1 be ab 25 4b 3d bc 5f f9 3c 82 ee af 3d
       -0.34579366 0.04959647 0.030441158 0.08590414
000120 3f e7 93 be 86 d0 2f bf 55 3c 33 3f fd de 36 be
       -0.28887364 -0.68677557 0.70013934 -0.17858501
000130 4b 12 b4 3d 3b 56 db 3b c4 ad 06 bf 5e 31 51 3e
       0.087925516 0.006693629 -0.52608895 0.20428988
000140 1a 59 68 bc e4 b5 82 bd 34 18 de be 9d 98 67 bb
       -0.0141814 -0.06382349 -0.4337784 -0.0035338767
000150 94 8a 2f 3c bb 8f 79 3d 4e 1f f5 bb 83 36 97 be
       0.010714192 0.060928088 -0.0074805385 -0.29533777
000160 62 05 03 3b 76 17 db be 14 6b 1e 3e dd aa c1 be
       0.0019992222 -0.42791337 0.15470535 -0.3782567
000170 cf b2 15 be e0 47 7b b9 30 d5 a9 ba 38 55 59 3f
       -0.14618991 -0.00023964001 -0.0012957212 0.8489566
000180 a6 c3 05 3e 92 a6 98 3f 7f 2a 21 3d 24 f3 34 be
       0.13062915 1.1925833 0.039347168 -0.17670876
000190 07 56 ba 3d bb 1f 3d bd c5 5f 92 be a2 7c 08 3d
       0.0909844 -0.04617284 -0.2858869 0.033321984
0001a0 4c fd 8d 3a 98 c0 f4 3d 8d b3 08 3e 77 2b d5 bc
       0.0010832935 0.11950797 0.13349743 -0.026021702
0001b0 3f 17 c4 3b 18 57 8b be 52 cd 63 be 8f 9a 8b 3e
       0.0059842165 -0.27214885 -0.22246292 0.27266356
0001c0 8b 34 8a be 42 fd 83 bb 24 08 11 be 6d 5d b5 3e
       -0.26993212 -0.0040279934 -0.14163262 0.3542284
0001d0 a8 41 93 3e b1 6d f9 3e 39 c6 0b 3b f2 db 0c be
       0.2876103 0.487165 0.0021327867 -0.13755777
0001e0 e6 02 7e be 8b 01 3a bf 1f e6 e0 3e 60 b0 17 3f
       -0.24805793 -0.72658604 0.43925568 0.592535
0001f0 27 ec 91 3e 8f 39 2f be c0 6a a6 3e e9 ce a3 3e
       0.28500482 -0.171118 0.3250332 0.31993797
000200 7f ed 08 bf b5 18 2d be 53 f8 9c bc 73 97 94 3e
       -0.5348739 -0.16903956 -0.019161379 0.29021797
000210 d1 48 06 3d 31 4d 8f 3b fe e8 d5 3d 20 d0 1c 3f
       0.032784287 0.0043732156 0.1044483 0.61255074
000220 7f d1 6a 3e e7 30 b7 3e ee a2 35 be 7c 7d b3 3e
       0.22931479 0.35779497 -0.17737934 0.35056674
000230 5e b9 84 bf 14 c5 19 bf 2a fb 42 3f a2 a0 03 3e
       -1.036907 -0.6006634 0.76164496 0.12854245
000240 cb 6c 8f be 60 7f 57 3d b3 87 53 3f 74 40 0a be
       -0.2801269 0.05261171 0.82628936 -0.1350115
000250 6f 40 c2 be 35 f7 41 be f5 b6 b3 3d a4 7c b1 bd
       -0.37939784 -0.18941958 0.08775131 -0.086663514
000260 5a a7 32 3e f7 f2 86 3e 68 52 ef be 05 a9 83 3e
       0.17446652 0.26357242 -0.46742558 0.2571489
000270 99 b2 96 be 21 10 bb bd a0 36 c2 3f 64 b6 9e 3f
       -0.29433134 -0.09133936 1.517292 1.2399411
000280 5f 7b f7 bd 79 37 90 bf 0f f2 87 3f 51 be 81 bd
       -0.12084078 -1.1266929 1.0620745 -0.06335128
000290 b0 d1 35 3d 43 e3 71 3e 9a cf 95 3e c6 fc 99 3e
       0.044389427 0.2362185 0.2925995 0.30075663
0002a0 0d 40 fe 3c 67 98 83 3d 6a a4 16 3e 92 5a d9 3d
       0.031036401 0.06425553 0.14711156 0.10612978
0002b0 48 38 0a 3e 34 2a 0b be b7 14 3a be 59 b5 95 be
       0.13498032 -0.13590318 -0.18171965 -0.2923992
0002c0 c1 e9 18 bf 71 36 9e be a5 d1 c1 3f ac 90 47 3f
       -0.5973168 -0.3090091 1.5142103 0.77955127
0002d0 64 17 5d bf 80 28 38 bf 39 a9 87 3e d8 91 7c 3e
       -0.86363816 -0.719368 0.26496294 0.2466501
0002e0 3a 3e 66 3e da 64 60 3e 41 59 54 3e 4a 93 50 be
       0.22484675 0.21913472 0.20737173 -0.20368686
0002f0 59 e0 0d 3e d9 44 cb 3e c2 82 15 3c 49 fc 9c be
       0.13855113 0.39700964 0.009125413 -0.30661228
000300 88 99 f4 3d 1c df 59 be 60 19 83 be f8 e7 e7 bd
       0.11943346 -0.21276516 -0.25605297 -0.113235414
000310 a1 81 89 bf fb 21 cb be d8 bf f0 3e c1 f5 83 3e
       -1.0742685 -0.39674363 0.47021365 0.25773433
000320 c9 57 58 3e 0c df 95 be 06 d8 d9 bc 36 e9 28 3f
       0.21127237 -0.29271734 -0.026592266 0.6598085
000330 ac 93 46 3f 3f 66 ef 3d 2f 5d 2c 3f d0 ba c8 3c
       0.7756908 0.11689424 0.67329687 0.024503142
000340 ac 5e 96 bf f5 43 a1 bd 4d a0 aa 3d 4a 99 e5 3d
       -1.1747642 -0.0787429 0.08331356 0.11210878
000350 ac 4a 46 3e 60 13 b4 be e8 6a 47 3f e8 b5 ca 3e
       0.19364423 -0.35171032 0.778975 0.39591908
000360 3c 67 aa 3e 64 10 3f bd 61 6d 8f 3d 4d a3 95 be
       0.33281887 -0.04664649 0.07003284 -0.2922615
000370 c7 fb fe be eb 73 59 bf 7e ae db be 46 b9 85 bf
       -0.49801466 -0.849425 -0.42906564 -1.0447166
000380 2c a6 0b bf f4 8e a8 bb c9 7b 0a bf 6e c3 46 3e
       -0.54550433 -0.0051439945 -0.5409513 0.19410488
000390 44 74 0f 3f 78 30 23 bd d7 58 84 bd 07 0f 45 3e
       0.5603678 -0.039841145 -0.06462257 0.19244014
0003a0 1e bb 99 3c 54 74 70 bd 8a e3 8e bf 42 61 90 3e
       0.018765982 -0.05870469 -1.116319 0.28199202
0003b0 a2 34 6c bf 57 84 30 3f 71 8e 0b bf 0f 69 5d bd
       -0.9226781 0.68951935 -0.54514223 -0.05405527
0003c0 c8 89 79 be 9c d6 85 3d 6e e3 09 bf b5 17 90 3e
       -0.24368966 0.06535074 -0.53862655 0.28143087
0003d0 62 5a aa 3b 38 bc 62 3e eb a9 23 be c8 82 da be
       0.0051987628 0.22142112 -0.15982787 -0.42677903
0003e0 ad 04 0a 3a 9b 88 c0 3d f1 cc cc bd 8c 2d bf 3d
       0.0005264979 0.094010554 -0.10000027 0.09334859
0003f0 19 b9 0f bd 02 57 fb 3b 56 13 c4 bd a3 65 3f be
       -0.035088632 0.0076702842 -0.095740005 -0.18691115

StatefulPartitionedCall/model/dense_1/BiasAdd/ReadVariableOp:0 f4 [20]
000000 02 ec e5 be 0d 6d c1 be 6c d1 c1 bd a4 f1 8c be
       -0.44906622 -0.37778512 -0.09463772 -0.27528107
000010 6f b3 78 be e3 05 c2 3d 4d 4f 00 bf fd 5e 11 3d
       -0.24287198 0.09473779 -0.50121003 0.03549098
000020 32 ab 0c 3e 16 d9 bb bd 11 2a a2 3c bc ab 35 3d
       0.13737181 -0.09172265 0.01979545 0.04435323
000030 eb 84 1e 3e c4 0e cb be e2 24 cf be 19 bd c8 bd
       0.15480392 -0.39659703 -0.40457827 -0.098016925
000040 ca 61 21 bf eb 04 08 39 fe 4d 36 bf b3 52 11 bf
       -0.6303984 0.00012971803 -0.71212757 -0.56766814

StatefulPartitionedCall/model/dense/Tensordot/Reshape_1:0 f4 [2, 20]
000000 8d 41 75 3d c8 f7 ab bf 85 71 4a bd 3a ab d4 3d
       0.059876967 -1.3434992 -0.049424667 0.103842214
000010 df f9 16 be a7 75 20 33 6c d9 59 be 24 94 0d c0
       -0.14743756 3.7359907e-08 -0.21274346 -2.2121668
000020 48 e6 93 bf 92 3c 3f bf 08 46 6e 3d 03 d5 19 be
       -1.1554651 -0.747018 0.058172256 -0.15022664
000030 62 95 4c bd 60 04 a1 bc db 52 7a 3e ac 7e 26 be
       -0.04994715 -0.019655406 0.2444567 -0.16259259
000040 90 be 96 3e a0 28 0f be 60 87 a6 bd 2c 2b 8a be
       0.29442263 -0.13980341 -0.081312895 -0.26986063
000050 bf f5 82 3f dc ff 72 bc 83 9a f2 3f e6 65 be 3f
       1.0231246 -0.014831509 1.8953403 1.4874847
000060 f6 51 8d 39 b5 27 ef 33 68 00 af 3f fc 78 be 3d
       0.0002695468 1.11365274e-07 1.3671999 0.0930042
000070 a4 67 7d be 93 2d 2f bc a3 02 c1 3f 32 45 85 bf
       -0.24746567 -0.010692018 1.507893 -1.0411742
000080 c8 b6 70 bb 86 cb ea bf 65 7e 1d c0 79 07 07 c0
       -0.003673004 -1.834336 -2.4608395 -2.109831
000090 a4 c9 b6 bf 35 42 71 c0 bb c4 08 3b e3 4a 17 3f
       -1.4280286 -3.769666 0.0020869214 0.59098643

StatefulPartitionedCall/model/dense/BiasAdd/ReadVariableOp:0 f4 [20]
000000 50 8c da be bd 56 94 3d 9c 17 49 bd 0e db 4d be
       -0.42685175 0.072431065 -0.04909478 -0.20103094
000010 93 69 2b bd 25 5c bd b3 db a9 69 be 1f 83 ae 3c
       -0.04184873 -8.817759e-08 -0.22818701 0.021302758
000020 a9 bb 8b 3e 3f 49 4c 3c 89 9b 58 be ad 0c d6 3e
       0.2729161 0.012468635 -0.21153082 0.41806546
000030 52 2c 96 bd 3d a1 5d 3e 3b 0e 90 3d c2 03 84 3e
       -0.07332672 0.21643539 0.07033964 0.25784117
000040 0e 28 a5 3e 01 11 01 3e b6 73 e7 bc 2c 7d 95 be
       0.32257122 0.12604143 -0.028253417 -0.2919706

StatefulPartitionedCall/model/batch_normalization_4/batchnorm/sub:0 f4 [20]
000000 88 fc 0e 3c c6 6b 73 39 d6 08 ea 3b 1c a6 d2 bd
       0.0087272 0.00023214435 0.0071421666 -0.10285589
000010 9a 95 28 3d 4e c7 1d 3d bf 9e b6 3d 5e 5b b6 3d
       0.041158296 0.03852015 0.08916997 0.08904146
000020 34 0b a1 3d 58 2f ba 3c b6 93 d7 bd f4 31 01 3d
       0.07863465 0.022727653 -0.105262205 0.03154178
000030 4f a5 13 bd 1b 1b a3 bd fd 02 d7 3d 23 9e ac 3b
       -0.036046322 -0.07964154 0.10498617 0.005267875
000040 8e 0f 70 3e 6e ab ab 3e f0 69 2c 3d 11 50 b1 3e
       0.23443434 0.33529228 0.042093217 0.34631398

StatefulPartitionedCall/model/batch_normalization_4/batchnorm/mul:0 f4 [20]
000000 4c 1f ba 3d fa 0a 75 3d 65 b6 17 3f 31 54 a2 3e
       0.09088001 0.05982492 0.59262687 0.31704858
000010 2c 7d c6 3d 65 d9 25 3e 48 c9 3e 3f b1 02 35 3e
       0.096918434 0.1619621 0.7452588 0.17676808
000020 ff 1a e8 3d 4b 4e 4f 3d 3f 2c 85 3e 2f b8 93 3d
       0.11333274 0.050611775 0.2601032 0.072128646
000030 3e 07 4b 3e 05 c4 89 3e ae 10 8d 3e cf ea 58 3d
       0.19826981 0.26907364 0.27551788 0.052958306
000040 3b da b7 3e 0f 75 e0 3e cd 27 23 3e cb a6 c2 3e
       0.35908684 0.4383931 0.15933152 0.38017878

StatefulPartitionedCall/model/batch_normalization_3/batchnorm/sub:0 f4 [20]
000000 9f 51 c1 3c e1 55 84 3d 5a b5 36 be 16 e2 43 be
       0.02359849 0.064616926 -0.17842618 -0.19129214
000010 cb 9e 10 bf 3a 89 19 3f 78 af 62 bd a5 c3 99 3d
       -0.564923 0.59975016 -0.05534312 0.07508019
000020 b5 15 13 be 85 92 c9 3c 36 2c 30 bd 6f 30 09 3f
       -0.1436375 0.024605999 -0.043010913 0.5358953
000030 68 03 22 3d 58 45 91 3c 51 fa aa be a7 bb 0f 3f
       0.03955403 0.017733261 -0.333941 0.5614571
000040 0c 60 20 be 00 72 bd 3e a1 6b 59 bd cd c6 61 3e
       -0.15661639 0.37001038 -0.05308116 0.22048493

StatefulPartitionedCall/model/batch_normalization_3/batchnorm/mul:0 f4 [20]
000000 3e d3 88 3e f5 14 b4 3e 43 23 2d 3e 6a 52 0b 3f
       0.26723665 0.3517224 0.16907983 0.5442263
000010 fc b1 e2 3e 1e ba 2e 3f f7 58 55 3e 04 cd 66 3e
       0.44276416 0.6825274 0.20834719 0.22539145
000020 d2 1a ea 3e 92 dd 3a 3f 46 4c 98 3e fd e7 1e 3f
       0.45723587 0.7299434 0.29745692 0.62072736
000030 11 a6 0c 3e ea bd 2c 3e c8 19 a8 3e 3f 84 12 3f
       0.13735224 0.16869321 0.3283217 0.5723304
000040 22 a6 43 3f 99 ef d0 3e 56 60 12 3f c2 aa 09 3f
       0.76425374 0.40807799 0.57178247 0.5377618

StatefulPartitionedCall/model/batch_normalization_2/batchnorm/sub:0 f4 [20]
000000 55 42 27 be 4e c2 b7 bd c1 31 57 be 1e 51 90 3d
       -0.16333897 -0.089726076 -0.21015073 0.07046722
000010 94 34 3e bb 82 09 35 3e 41 7f 7a 3e 9e 5f 75 be
       -0.0029023038 0.17679408 0.24462606 -0.23962256
000020 15 84 5d 3e de 9e 17 be 7a 56 c5 39 f1 5b af be
       0.21632417 -0.14806697 0.00037639198 -0.34249833
000030 a5 ad cb 3e 1e 20 1f be 75 0b 8c 3d 85 03 99 be
       0.39780918 -0.15539595 0.06838123 -0.29885498
000040 3c c8 67 bd b6 de 43 be 1c 16 26 3d 95 d2 e2 3d
       -0.056587443 -0.19127926 0.04054843 0.110753216

StatefulPartitionedCall/model/batch_normalization_2/batchnorm/mul:0 f4 [20]
000000 5c 60 d9 3e b5 6c e8 3e 10 b3 70 3e 0b 55 13 3e
       0.4245633 0.45395437 0.23505807 0.1438791
000010 b4 34 17 3f 3e bb f2 3e 18 9a d0 3e 23 c5 3c 3e
       0.59064794 0.4740848 0.40742564 0.18434577
000020 6a c4 8c 3f bc c8 26 3f bc 1a a0 be 44 ac b5 3e
       1.0997441 0.65150046 -0.31270397 0.3548299
000030 06 1c 80 3f d3 c1 37 3f 33 33 0b 3f 20 28 91 3f
       1.0008552 0.7178013 0.54375 1.134037
000040 39 c0 db 3e c8 51 13 3f ef 24 c3 3e 7e c7 af be
       0.42920092 0.57546663 0.38114116 -0.34331888

StatefulPartitionedCall/model/batch_normalization_1/batchnorm/sub:0 f4 [20]
000000 d3 59 f7 bd 89 f3 af bd 8e 4f 84 3d 21 4a a0 bd
       -0.120776795 -0.085913725 0.06460486 -0.07826639
000010 5a cb 86 be 00 03 8e 3e 4b 76 ee be e6 b8 98 3a
       -0.2632702 0.27736664 -0.46574625 0.0011651784
000020 3c 96 25 3e 51 83 1a 3b 77 48 b6 ba 67 64 72 3e
       0.16170591 0.0023576806 -0.0013907094 0.23671113
000030 82 63 81 3a f9 48 67 be aa d7 9a be a5 ed 00 3b
       0.0009871575 -0.2258643 -0.30242664 0.0019672897
000040 fd bd 5d 3d a5 83 b3 3a ce 91 36 3f c6 a7 3d 3e
       0.054136265 0.0013695849 0.7131623 0.18521032

StatefulPartitionedCall/model/batch_normalization_1/batchnorm/mul:0 f4 [20]
000000 55 cf 13 3f ab 22 ca 3e df 80 36 3e c9 f5 80 3f
       0.5773824 0.39479575 0.17822598 1.0075008
000010 05 b6 83 3f e4 0f 0d 3a 60 3e 45 3f b4 12 91 bd
       1.0289923 0.0005381091 0.770483 -0.070836455
000020 82 7c b5 3f 1c dd 2d 3b 55 a8 07 3d 95 b7 39 3a
       1.4178622 0.0026529497 0.03311952 0.0007084546
000030 c4 06 9a 3c 85 23 a6 3f 08 b8 84 3f 1f f7 f0 3d
       0.018802054 1.297959 1.0368662 0.117658846
000040 29 21 38 3e d2 38 03 bc cc 78 8d 3f 02 b9 a4 3e
       0.179814 -0.0080091525 1.1052489 0.321724

StatefulPartitionedCall/model/batch_normalization/batchnorm/sub:0 f4 [20]
000000 df 7d 9a be c4 ab 12 3f f6 2e 57 bd d1 7a 06 be
       -0.30174157 0.57293344 -0.05253502 -0.13132788
000010 48 05 4c 3a ce e2 8d 3a 91 2e 18 be 84 bb 27 3f
       0.00077827694 0.0010825039 -0.14861514 0.655205
000020 f4 78 8a 3e fa a2 8a 3e 2c bb 2a be 5c 13 83 3e
       0.27045405 0.27077466 -0.16672963 0.25600708
000030 a7 e3 5d 3c 20 aa ec 3d 9a e7 a6 3d 23 f2 ed 3d
       0.013543046 0.11555886 0.08149643 0.116184495
000040 60 7e 72 3e 53 71 c1 3d 3d ab 13 3c a8 1b bb 37
       0.2368102 0.09445443 0.009012994 2.2305016e-05

StatefulPartitionedCall/model/batch_normalization/batchnorm/mul:0 f4 [20]
000000 b2 ee c4 3f 37 66 b2 3f 80 ba ed 3f 4e 30 d1 3f
       1.5385344 1.3937443 1.857254 1.6342866
000010 02 33 ba 3b 10 e8 2b b4 c5 06 8d 3f 7d 90 98 3f
       0.00568235 -1.601004e-07 1.1017691 1.1919094
000020 4c 0b 7e 3f 74 78 6a 3f a4 84 db 3f ed 94 c8 3f
       0.9923599 0.91590047 1.7149854 1.5670449
000030 c6 b2 0c 3e 38 cd fd 3f 9c cf 06 40 fa 5f c4 3f
       0.13740072 1.9828253 2.1064215 1.534179
000040 e9 77 e3 3f 4a bf d9 3f f0 05 d8 3d 00 b5 44 3b
       1.7770969 1.7011502 0.105480075 0.003001511
