toymodel/toy-model.onnx (onnx, 708 bytes, 5 tensors)

l1.weight f4 [4, 8]
00000000: a1c1 19bc 7d1a 343e 270f 8dbe bfdb 853e
00000010: 180d 933e a42c 473e 2692 0fbe 3392 a23e
00000020: cc2b 63be 8468 4fbd 816b 3d3e f705 2d3d
00000030: e028 183d 6997 263e ea5a 29be 3a59 61be
00000040: 5231 203e 3709 4ebb b01f 13bd 48eb 2abe
00000050: 5e51 3e3e 40ff a93e 8423 8ebe dc81 60bd
00000060: f3f0 86bd 9b59 ebbd 6603 79be c6b4 55be
00000070: 534e 28be 5a8c 743e 9dc9 ec3c 5229 22be
-0.009384544 0.1758823 -0.27550623 0.26144215 0.28720927 0.19450623 -0.14020595 0.31752166
-0.22184676 -0.050636783 0.1849804 0.042242017 0.037148356 0.16268696 -0.16538587 -0.22006693
0.15643814 -0.0031438598 -0.03591889 -0.16691315 0.18585727 0.33202553 -0.2776147 -0.054811344
-0.06588926 -0.114917 -0.24317703 -0.20869741 -0.16436128 0.23881665 0.02890473 -0.15836075

l1.bias f4 [4]
00000000: b413 b0be 15bf 84be d43b 5f3e 2ac9 523e
-0.34390032 -0.25927034 0.21800166 0.2058455

l2.weight f4 [2, 4]
00000000: 00ff 253b c063 593c 324a 8f3e 50b1 11bd
00000010: a892 0ebe 98c8 5dbe 6c2c afbe 7834 8e3e
0.0025328994 0.013268411 0.27986294 -0.03556949 -0.13923132 -0.21658552 -0.3421358 0.27774405

l2.bias f4 [2]
00000000: 9e05 8cbe fe7d ff3e
-0.27348036 0.49900812

l3.weight f4 [1, 2]
00000000: 94fb ac3e 0423 043e
0.3378569 0.12903982
