toymodel/toy-model.onnx (onnx, 594 bytes, 5 tensors)

l1.bias f4 [4]
0	0x3dd0fe21	0.10204721
1	0xbe4add9f	-0.19811104
2	0xbe425fc7	-0.18981849
3	0xbe183d3d	-0.1486711

l2.bias f4 [2]
0	0xbeb05e86	-0.34447116
1	0x3eb5ebcc	0.3553146

17 f4 [8, 4]
0	0xbdbcc65f	-0.09217524
1	0xbd0cddb2	-0.034391113
2	0xbeb1ba90	-0.34712648
3	0xbdefc7b2	-0.11708011
4	0x3d52ac73	0.05143399
5	0x3e4018e4	0.18759495
6	0x3cd83b0f	0.026395349
7	0x3e9f869a	0.3115738
8	0x3eaa43bc	0.33254802
9	0xbda84e72	-0.08218087
10	0x3e215730	0.15755916
11	0x3e0c3cbd	0.13695045
12	0x3e2ff566	0.17183456
13	0xbd5ce00f	-0.053924616
14	0x3ea2e5fa	0.31816083
15	0xbdc19890	-0.09452927
16	0xbe9af20a	-0.30262786
17	0xbe2ab897	-0.16671978
18	0x3e4af4e7	0.19819985
19	0x3b973251	0.0046141525
20	0xbe0d5a91	-0.1380408
21	0x3ead79d9	0.33882025
22	0x3e847e8b	0.25877795
23	0x3eabc39e	0.33547682
24	0x3e5e8814	0.21731597
25	0xbdd78a37	-0.10524409
26	0x3e98f463	0.29873952
27	0x3ea3359e	0.31876844
28	0x3e83bb83	0.25728998
29	0xbe8e254e	-0.27762836
30	0x3e7a4fe8	0.24444544
31	0x3e7d3587	0.2472745

18 f4 [4, 2]
0	0x3e999ff6	0.30004853
1	0xbefd28d4	-0.49445212
2	0x3ea26730	0.3171935
3	0xbe18d4e0	-0.14924955
4	0x3ed3cfdc	0.41369522
5	0x3c16cd00	0.009204149
6	0x3ef1259c	0.47099006
7	0x3e95830c	0.29201543

19 f4 [2, 1]
0	0xbd9ba7cf	-0.07600366
1	0xbe3c4b29	-0.18388046
