toymodel/toy-model.onnx (onnx, 594 bytes, 5 tensors)

l1.bias f4 [4]
-0.30637467 0.24883638 0.21191932 -0.35281703
00000000: 24dd 9cbe f7ce 7e3e 6101 593e 6fa4 b4be

l2.bias f4 [2]
0.0675624 0.45262384
00000000: 285e 8a3d 50be e73e

17 f4 [8, 4]
0.19616838 0.2774231 -0.05811511 0.23134358 0.19421689 -0.18699907 -0.24695693 -0.09381821
0.1459354 -0.19434531 0.2852703 -0.2415746 -0.33766034 0.20821942 0.23093265 -0.08426647
0.06291133 -0.08565386 -0.18367296 -0.11634831 -0.095502354 -0.08200377 -0.09609304 0.07657471
-0.16717985 -0.0017308868 0.08397161 -0.19994405 0.16967587 -0.14052315 0.3475068 -0.18586351
00000000: 5de0 483e 670a 8e3e 1c0a 6ebd 55e5 6c3e
00000010: cbe0 463e af7c 3fbe 47e2 7cbe c323 c0bd
00000020: 1770 153e 7502 47be f30e 923e 555f 77be
00000030: d1e1 acbe 7937 553e 9c79 6c3e e693 acbd
00000040: a8d7 803d 4a6b afbd c414 3cbe 0648 eebd
00000050: bd96 c3bd 98f1 a7bd 6ecc c4bd 34d3 9c3d
00000060: 3231 2bbe ecde e2ba 4ff9 ab3d 22be 4cbe
00000070: 83bf 2d3e 4de5 0fbe 69ec b13e 0153 3ebe

18 f4 [4, 2]
0.17180979 -0.46744484 0.127011 -0.025528073 -0.24066311 0.22963035 0.14972204 0.14111686
00000000: e8ee 2f3e ee54 efbe 2c0f 023e 4020 d1bc
00000010: 6470 76be 3824 6b3e bc50 193e f080 103e

19 f4 [2, 1]
-0.2264352 -0.30413502
00000000: a1de 67be 96b7 9bbe
